…
You are running the InceptionV3 model, with Splitting_test_and_hold=0.3, Drop=0.2, batch=32, LR=0.0007.


---------------
DATA PREPARATION
---------------

The length of training, testing, and holdout dataset is: 414 89 89 respectively
(592, 186, 186, 3)
Training fold 1...
0.0007
Model: "my_image_model"
_________________________________________________________________
 Layer (type)                Output Shape              Param #   
=================================================================
 input_2 (InputLayer)        [(None, 186, 186, 3)]     0         
                                                                 
 inception_v3 (Functional)   (None, 4, 4, 2048)        21802784  
                                                                 
 global_average_pooling2d (G  (None, 2048)             0         
 lobalAveragePooling2D)                                          
                                                                 
 dense_1_image (Dense)       (None, 1024)              2098176   
                                                                 
 bn_1_image (BatchNormalizat  (None, 1024)             4096      
 ion)                                                            
                                                                 
 dropout_1_image (Dropout)   (None, 1024)              0         
                                                                 
 dense_2_image (Dense)       (None, 512)               524800    
                                                                 
 bn_2_image (BatchNormalizat  (None, 512)              2048      
 ion)                                                            
                                                                 
 dropout_2_image (Dropout)   (None, 512)               0         
                                                                 
 dense_3_image (Dense)       (None, 256)               131328    
                                                                 
 bn_3_image (BatchNormalizat  (None, 256)              1024      
 ion)                                                            
                                                                 
 dropout_3_image (Dropout)   (None, 256)               0         
                                                                 
 dense_4_image (Dense)       (None, 1)                 257       
                                                                 
=================================================================
Total params: 24,564,513
Trainable params: 2,758,145
Non-trainable params: 21,806,368
_________________________________________________________________
None

Search: Running Trial #1

Value             |Best Value So Far |Hyperparameter
0.0007            |0.0007            |learning_rate

0.0007
Model: "my_image_model"
_________________________________________________________________
 Layer (type)                Output Shape              Param #   
=================================================================
 input_1 (InputLayer)        [(None, 186, 186, 3)]     0         
                                                                 
 inception_v3 (Functional)   (None, 4, 4, 2048)        21802784  
                                                                 
 global_average_pooling2d (G  (None, 2048)             0         
 lobalAveragePooling2D)                                          
                                                                 
 dense_1_image (Dense)       (None, 1024)              2098176   
                                                                 
 bn_1_image (BatchNormalizat  (None, 1024)             4096      
 ion)                                                            
                                                                 
 dropout_1_image (Dropout)   (None, 1024)              0         
                                                                 
 dense_2_image (Dense)       (None, 512)               524800    
                                                                 
 bn_2_image (BatchNormalizat  (None, 512)              2048      
 ion)                                                            
                                                                 
 dropout_2_image (Dropout)   (None, 512)               0         
                                                                 
 dense_3_image (Dense)       (None, 256)               131328    
                                                                 
 bn_3_image (BatchNormalizat  (None, 256)              1024      
 ion)                                                            
                                                                 
 dropout_3_image (Dropout)   (None, 256)               0         
                                                                 
 dense_4_image (Dense)       (None, 1)                 257       
                                                                 
=================================================================
Total params: 24,564,513
Trainable params: 2,758,145
Non-trainable params: 21,806,368
_________________________________________________________________
None
 1/15 [=>............................] - ETA: 1:15 - loss: 3.6732
…
                                 past_key_values=No                                               
                                ne, hidden_states=N                                               
                                one, attentions=Non                                               
                                e, cross_attentions                                               
                                =None)                                                            
                                                                                                  
 average_pooling1d (AveragePool  (None, 1, 768)      0           ['tf_roberta_model[0][0]']       
 ing1D)                                                                                           
                                                                                                  
 flatten (Flatten)              (None, 768)          0           ['average_pooling1d[0][0]']      
                                                                                                  
 dense_1_text (Dense)           (None, 512)          393728      ['flatten[0][0]']                
                                                                                                  
 bn_1_text (BatchNormalization)  (None, 512)         2048        ['dense_1_text[0][0]']           
                                                                                                  
 dropout_1_text (Dropout)       (None, 512)          0           ['bn_1_text[0][0]']              
                                                                                                  
 dense_2_text (Dense)           (None, 512)          262656      ['dropout_1_text[0][0]']         
                                                                                                  
 bn_2_text (BatchNormalization)  (None, 512)         2048        ['dense_2_text[0][0]']           
                                                                                                  
 dropout_2_text (Dropout)       (None, 512)          0           ['bn_2_text[0][0]']              
                                                                                                  
 dense_3_text (Dense)           (None, 256)          131328      ['dropout_2_text[0][0]']         
                                                                                                  
 bn_3_text (BatchNormalization)  (None, 256)         1024        ['dense_3_text[0][0]']           
                                                                                                  
 dropout_3_text (Dropout)       (None, 256)          0           ['bn_3_text[0][0]']              
                                                                                                  
 input_3 (InputLayer)           [(None, 186, 186, 3  0           []                               
                                )]                                                                
                                                                                                  
 dense_4_text (Dense)           (None, 1)            257         ['dropout_3_text[0][0]']         
                                                                                                  
==================================================================================================
Total params: 125,438,721
Trainable params: 790,529
Non-trainable params: 124,648,192
__________________________________________________________________________________________________
…
                                )]                                                                
                                                                                                  
 input_ids (InputLayer)         [(None, 11)]         0           []                               
                                                                                                  
 attention_mask (InputLayer)    [(None, 11)]         0           []                               
                                                                                                  
 my_image_model_headless (Funct  (None, 256)         24564256    ['input_3[0][0]']                
 ional)                                                                                           
                                                                                                  
 my_text_model_headless (Functi  (None, 256)         125438464   ['input_3[0][0]',                
 onal)                                                            'input_ids[0][0]',              
                                                                  'attention_mask[0][0]']         
                                                                                                  
 concat_both (Concatenate)      (None, 512)          0           ['my_image_model_headless[0][0]',
                                                                  'my_text_model_headless[0][0]'] 
                                                                                                  
 dense_1_both (Dense)           (None, 512)          262656      ['concat_both[0][0]']            
                                                                                                  
 bn_1_both (BatchNormalization)  (None, 512)         2048        ['dense_1_both[0][0]']           
                                                                                                  
 dropout_1_both (Dropout)       (None, 512)          0           ['bn_1_both[0][0]']              
                                                                                                  
 dense_2_both (Dense)           (None, 256)          131328      ['dropout_1_both[0][0]']         
                                                                                                  
 bn_2_both (BatchNormalization)  (None, 256)         1024        ['dense_2_both[0][0]']           
                                                                                                  
 dropout_2_both (Dropout)       (None, 256)          0           ['bn_2_both[0][0]']              
                                                                                                  
 dense_3_both (Dense)           (None, 1)            257         ['dropout_2_both[0][0]']         
                                                                                                  
==================================================================================================
Total params: 150,400,033
Trainable params: 395,777
Non-trainable params: 150,004,256
__________________________________________________________________________________________________
…
